…
RNING:absl:`lr` is deprecated in Keras optimizer, please use `learning_rate` or use the legacy optimizer, e.g.,tf.keras.optimizers.legacy.Adam.\n"]},{"output_type":"stream","name":"stdout","text":["Model: \"model_1\"\n","_________________________________________________________________\n"," Layer (type)                Output Shape              Param #   \n","=================================================================\n"," input_4 (InputLayer)        [(None, 224, 224, 3)]     0         \n","                                                                 \n"," block1_conv1 (Conv2D)       (None, 224, 224, 64)      1792      \n","                                                                 \n"," block1_conv2 (Conv2D)       (None, 224, 224, 64)      36928     \n","                                                                 \n"," block1_pool (MaxPooling2D)  (None, 112, 112, 64)      0         \n","                                                                 \n"," block2_conv1 (Conv2D)       (None, 112, 112, 128)     73856     \n","                                                                 \n"," block2_conv2 (Conv2D)       (None, 112, 112, 128)     147584    \n","                                                                 \n"," block2_pool (MaxPooling2D)  (None, 56, 56, 128)       0         \n","                                                                 \n"," block3_conv1 (Conv2D)       (None, 56, 56, 256)       295168    \n","                                                                 \n"," block3_conv2 (Conv2D)       (None, 56, 56, 256)       590080    \n","                                                                 \n"," block3_conv3 (Conv2D)       (None, 56, 56, 256)       590080    \n","                                                                 \n"," block3_conv4 (Conv2D)       (None, 56, 56, 256)       590080    \n","                                                                 \n"," block3_pool (MaxPooling2D)  (None, 28, 28, 256)       0         \n","                                                                 \n"," block4_conv1 (Conv2D)       (None, 28, 28, 512)       1180160   \n","                                                                 \n"," block4_conv2 (Conv2D)       (None, 28, 28, 512)       2359808   \n","                                                                 \n"," block4_conv3 (Conv2D)       (None, 28, 28, 512)       2359808   \n","                                                                 \n"," block4_conv4 (Conv2D)       (None, 28, 28, 512)       2359808   \n","                                                                 \n"," block4_pool (MaxPooling2D)  (None, 14, 14, 512)       0         \n","                                                                 \n"," block5_conv1 (Conv2D)       (None, 14, 14, 512)       2359808   \n","                                                                 \n"," block5_conv2 (Conv2D)       (None, 14, 14, 512)       2359808   \n","                                                                 \n"," block5_conv3 (Conv2D)       (None, 14, 14, 512)       2359808   \n","                                                                 \n"," block5_conv4 (Conv2D)       (None, 14, 14, 512)       2359808   \n","                                                                 \n"," block5_pool (MaxPooling2D)  (None, 7, 7, 512)         0         \n","                                                                 \n"," reshape_1 (Reshape)         (None, 49, 512)           0         \n","                                                                 \n"," lstm_1 (LSTM)               (None, 49, 512)           2099200   \n","                                                                 \n"," batch_normalization_3 (Bat  (None, 49, 512)           2048      \n"," chNormalization)                                                \n","                                                                 \n"," flatten (Flatten)           (None, 25088)             0         \n","                                                                 \n"," dense_3 (Dense)             (None, 4096)              102764544 \n","                                                                 \n"," batch_normalization_4 (Bat  (None, 4096)              16384     \n"," chNormalization)                                                \n","                                                                 \n"," dense_4 (Dense)             (None, 4096)              16781312  \n","                                                                 \n"," batch_normalization_5 (Bat  (None, 4096)              16384     \n"," chNormalization)                                                \n","                                                                 \n"," dense_5 (Dense)             (None, 4)                 16388     \n","                                                                 \n","=================================================================\n","Total params: 141720644 (540.62 MB)\n","Trainable params: 119579652 (456.16 MB)\n","Non-trainable params: 22140992 (84.46 MB)\n","_________________________________________________________________\n"]}]},{"cell_type":"code","source":["checkpoint = [Mo
…
